model_params/q3_probe.pth (torch, 6616 bytes, 2 tensors)

fc.weight f4 [10, 128]
0	0xbe041b4f	-0.12901042
1	0xbd8746de	-0.06605314
2	0x3d76008f	0.060059126
3	0x3dd037bc	0.101668805
4	0xbda007d0	-0.0781399
5	0x3de85ff4	0.113464266
6	0x3db0d558	0.08634442
7	0x3dc4b55d	0.09604905
8	0xbda1f395	-0.07907788
9	0xbd691504	-0.056904808
10	0xbd996b1f	-0.07491135
11	0x3db01dfa	0.085994676
12	0x3ca8567e	0.020549055
13	0x3d18749b	0.03722058
14	0xbdd1db90	-0.10246956
15	0x3d31939c	0.043353662
16	0xbe3bbe3c	-0.18334287
17	0x3d87b150	0.066256166
18	0xbd4aa430	-0.049472988
19	0xbd6690dd	-0.056290496
20	0x3d460d8e	0.04835277
21	0x3cc26cf8	0.023733601
22	0x3dba9d0b	0.09111985
23	0x3e35c7b2	0.17751959
24	0xbd389057	-0.04505953
25	0x3a9420a3	0.001130123
26	0x3dab12da	0.08353205
27	0xbd8cca7a	-0.06874557
28	0x3d828d3f	0.06374597
29	0xbd08adbe	-0.03336882
30	0x3d07e826	0.03318038
31	0x3dac3d26	0.08410101
32	0x3c445334	0.011982728
33	0xbd19657a	-0.03745029
34	0x3e0e71e8	0.1391064
35	0x3d42987c	0.0475087
36	0xbe0600bb	-0.13086216
37	0xbd469c5c	-0.04848896
38	0xbd363b42	-0.044490106
39	0xbd133193	-0.03593595
40	0xbcfcf0f4	-0.030876614
41	0xbca4e7b5	-0.020130018
42	0xbd2f510d	-0.042801905
43	0xbdab35cd	-0.08359871
44	0x3d922a81	0.07137013
45	0xbd9d5d4a	-0.07683809
46	0x3e16e69c	0.14736408
47	0xbe297f55	-0.1655248
48	0xbe36737d	-0.17817493
49	0xbd7ed010	-0.062210143
50	0xbe110f4d	-0.14165993
51	0xbddb0589	-0.10694415
52	0xbd50d81c	-0.050987348
53	0xbd5a8382	-0.053348072
54	0xbd17cff8	-0.03706357
55	0x3e3bd35f	0.1834235
56	0xbd935907	-0.07194715
57	0xbc15de98	-0.009147309
58	0xbd5b412d	-0.053528953
59	0xbe380c3c	-0.17973417
60	0x3d93e530	0.072214484
61	0x3df0ecc5	0.1176391
62	0xbd321549	-0.04347733
63	0xbdb3504a	-0.08755548
64	0x3d0e2c1b	0.03471003
65	0x3c0cdc4e	0.008597447
66	0x3c0b97fe	0.0085201245
67	0x3d887dd4	0.06664625
68	0x3df7efc0	0.121062756
69	0x3da1d351	0.079016335
70	0x3de80e31	0.11330832
71	0x3cd924ec	0.026506864
72	0xbdc73135	-0.09726182
73	0xbd98b067	-0.07455521
74	0x3d014f92	0.031570025
75	0xbc7bad9d	-0.015361217
76	0xbe1e22d6	-0.15442976
77	0xbe094f78	-0.13409221
78	0xbd25444b	-0.040348332
79	0x3d3fc801	0.046821598
80	0x3c9e5329	0.019326763
81	0xbcc88fb3	-0.024482584
82	0x3d5616b8	0.05226776
83	0x3cc60358	0.024171516
84	0x3d31e0dc	0.043427333
85	0x3d41c6db	0.047308784
86	0xbc5b43da	-0.013382876
87	0xbdeb2dbd	-0.11483333
88	0x3d8705f2	0.06592931
89	0x3dc8f3f3	0.098121546
90	0xbb39d414	-0.0028355168
91	0x3ccef9ee	0.02526566
92	0xbdccf688	-0.100079596
93	0xbba84149	-0.0051347357
94	0x3c9d9f86	0.019241106
95	0x3e202427	0.15638791
96	0x3e0d0dbe	0.13774773
97	0xbe257ba8	-0.16160452
98	0xbdb10f3b	-0.08645483
99	0xbda73c47	-0.08165794
100	0xbcc80490	-0.024416238
101	0x3d808b4b	0.06276568
102	0x3e262c12	0.16227749
103	0x3d02fcf2	0.03197951
104	0x3d94dc8d	0.07268629
105	0x3ccae608	0.02476789
106	0xbe08e33e	-0.13367936
107	0x3c3d7d9a	0.01156559
108	0x3ae8c484	0.0017758762
109	0x3dbba34e	0.09162007
110	0x3e34f542	0.17671683
111	0x3c292734	0.010324288
112	0xbd56611a	-0.052338697
113	0x3d703c91	0.05865151
114	0x3b0a137c	0.0021068742
115	0x3e287704	0.16451651
116	0x3c039b75	0.008032669
117	0x3da94ab8	0.082662046
118	0x3cc2a864	0.023761936
119	0xbc1eacd8	-0.009684764
120	0x3e0033b8	0.12519729
121	0xbb3eee86	-0.002913387
122	0x3d45641f	0.048191186
123	0xbda654fb	-0.081216775
124	0xbda1e2e8	-0.07904607
125	0x3e148015	0.14501984
126	0xbd52a57e	-0.051427357
127	0xbd4b81d5	-0.049684364
128	0xbe02d132	-0.12775114
129	0x3e200a6c	0.15628976
130	0x3c453999	0.012037658
131	0xbddd2252	-0.10797562
132	0xbd28d131	-0.041215125
133	0xbd788ec1	-0.060683016
134	0xbe0cde67	-0.13756715
135	0xbe1eb506	-0.15498742
136	0xbd859bbd	-0.06523845
137	0x3dcdc7db	0.10047885
138	0x3e30c647	0.17263137
139	0x3d24cc3f	0.040233847
140	0xbe2e1031	-0.16998364
141	0xbd72d3b3	-0.059283923
142	0xbdf51149	-0.119661875
143	0x3d62cb1b	0.055369478
144	0x3db49272	0.08816995
145	0x3d8c3390	0.06845772
146	0xbcf87b86	-0.030332338
147	0xbe1f5f10	-0.15563607
148	0xbd1050a0	-0.03523314
149	0xbdac4ee7	-0.08413487
150	0xbd61b3cd	-0.055103112
151	0xbd7f2578	-0.062291592
152	0x3e3e489d	0.18582387
153	0x3ad2b3bc	0.0016075294
154	0x3e0c2df8	0.1368941
155	0xbd93e36c	-0.07221112
156	0xbd8766b2	-0.066113845
157	0xb9f3e88b	-0.0004652183
158	0xbe16552b	-0.14680927
159	0xbe1baf4e	-0.15203592
160	0xbe086ab4	-0.13321954
161	0xbd6015d2	-0.05470831
162	0x3e2247e8	0.15847743
163	0xbcfafa90	-0.030637056
164	0x3dbe5eb4	0.09295407
165	0x3d30536a	0.0430483
166	0x3d809650	0.0627867
167	0x3db65c68	0.08904344
168	0xbd9c7fa5	-0.07641534
169	0xbdc706cf	-0.097180955
170	0xba240ec7	-0.00062583055
171	0x3d7b3536	0.061330043
172	0xbd977876	-0.07396023
173	0x3d1cce8c	0.038282916
174	0xbd7e703b	-0.06211875
175	0x3e3c1ce2	0.18370393
176	0x3dbe80df	0.09301924
177	0xbd7e785c	-0.062126502
178	0xbe20212d	-0.15637656
179	0x3da4e091	0.08050645
180	0x3c51fff1	0.012817369
181	0xbd4b55d1	-0.049642388
182	0x3e536f08	0.20647824
183	0x3d65546c	0.055988714
184	0x3de4d82c	0.11174044
185	0xbe50de48	-0.20397294
186	0xbe4d0ef0	-0.2002523
187	0xbd991239	-0.07474179
188	0x3e3149e9	0.1731335
189	0xbdf8c99d	-0.1214783
190	0xbe184593	-0.1487029
191	0xbe27e203	-0.1639481
192	0xbda506e4	-0.08057955
193	0x3cb30cbf	0.021856664
194	0xbe378244	-0.17920786
195	0xbccadb2c	-0.024762712
196	0xbdf2a65a	-0.11848135
197	0x3d47a4a9	0.048741017
198	0xbe18cfc6	-0.1492301
199	0xbd1b4b54	-0.037913635
200	0x3d6ff057	0.058578815
201	0x3dc65441	0.09684039
202	0xbde6a7dd	-0.11262486
203	0xbc84ae0c	-0.016196273
204	0x3d006821	0.031349305
205	0xbe4402b7	-0.1914166
206	0xbd0e783e	-0.03478264
207	0x3de8face	0.11375962
208	0x3e22b263	0.15888362
209	0xbdf21c8a	-0.1182185
210	0x3d9f0e92	0.07766451
211	0x3db6a336	0.08917849
212	0x3da59793	0.08085551
213	0xbbe91510	-0.0071131065
214	0xbcb16e50	-0.021659046
215	0x3d1b86fc	0.037970528
216	0xbcf110a9	-0.02942689
217	0xbd5d2ea2	-0.05399955
218	0x3d83adec	0.06429657
219	0x3d7d09f6	0.061777078
220	0xbe65124a	-0.22370258
221	0xbd98bbec	-0.07457718
222	0xbe139139	-0.14410867
223	0xbe05967e	-0.1304569
224	0x3cfe18ef	0.031017749
225	0x3e184ab9	0.14872254
226	0xbc6a613e	-0.014305411
227	0x3d23b1b5	0.039964397
228	0x3e0441eb	0.1291577
229	0xbe0f865b	-0.14016096
230	0xb9c8077f	-0.00038152558
231	0x3e3e13da	0.1856226
232	0x3d2a8fcf	0.041641053
233	0xbd7ffc59	-0.062496517
234	0x3c42474f	0.011857822
235	0xbb9aa177	-0.004718955
236	0x3ad51343	0.0016256351
237	0x3e339b56	0.17539725
238	0x3ce79e9a	0.02827387
239	0x3d4d52e7	0.05012789
240	0x3deb1852	0.11479248
241	0x3d229cac	0.039700195
242	0xbdfa196b	-0.12211879
243	0x3d7588ce	0.05994492
244	0x3a9e4a1f	0.0012076533
245	0x3d94f892	0.072739735
246	0x3df1fab4	0.11815396
247	0x3d6a339c	0.057178125
248	0x3e1465f2	0.14492014
249	0xbdc921f3	-0.098209284
250	0x3d8f1e2e	0.06988178
251	0x3d6b6e6e	0.05747836
252	0xbe0526b2	-0.13003042
253	0xbd90e4fa	-0.07074924
254	0xbd67962d	-0.056539703
255	0xbc66be00	-0.0140833855

fc.bias f4 [10]
0	0xbd6352d7	-0.055498924
1	0xbc816d88	-0.015799299
2	0x3d113ea6	0.035460137
3	0x3d5cdcb2	0.05392141
4	0xbd3fc655	-0.046820004
5	0x3cde4f58	0.027137443
6	0xbd5d06e2	-0.053961642
7	0xbd487ea1	-0.048948888
8	0xbd44d767	-0.048056986
9	0xba69a2ef	-0.00089125236
